mod2/model_weights.pth (torch, 181388 bytes, 10 tensors)

conv1.weight f4 [6, 1, 5, 5]
000000 1c 29 98 3e c2 17 19 3e 1e 1c 94 3e 9b b4 a1 3e
       0.29718864 0.14950469 0.28927702 0.31583104
000010 f2 e8 0f 3e df ea e9 3d fc 3b 68 3e 83 ab 4c 3e
       0.14053705 0.11421751 0.22679132 0.19987302
000020 9b 23 b7 3e 6d d6 ea 3d 4e 3d 96 3d bd 78 65 bd
       0.35769352 0.1146668 0.07335912 -0.056023348
000030 2c 29 14 3e 63 d8 82 3e 72 aa 4f 3e 74 31 9e bd
       0.14468831 0.25555715 0.20279863 -0.07724276
000040 fc cf 52 3c ba 8f f5 3d 14 ad a4 3e 01 6b b4 3d
       0.01286697 0.11990304 0.32163298 0.08809472
000050 a8 5d 4b 3e 78 62 64 3e eb 5f d5 3c cd 48 2a 3e
       0.19859946 0.22303188 0.026046714 0.16629334
000060 8b bd 3e 3e fd 18 8e bd 84 34 41 be ec af ce bd
       0.18626992 -0.0693836 -0.1886769 -0.10092148
000070 72 6c bb 3d 85 0e 07 be ad 9a 34 be e1 ba 53 3c
       0.09151544 -0.13189133 -0.17637129 0.012922973
000080 f1 aa ee bc c2 b2 4e bc 68 fa 22 3d 14 45 92 3d
       -0.029134246 -0.012615861 0.039789587 0.07142082
000090 77 fa 3c 3e b0 22 8b 3d 17 ab ab bd 16 cb 3d be
       0.1845492 0.067937255 -0.08382242 -0.18534502
0000a0 28 70 16 3d 0b 7a 1c 3e 97 82 8f bd 28 0e 36 be
       0.036728054 0.1528093 -0.0700733 -0.17778838
0000b0 8c 06 1a 3e 3f 11 21 be 4e 72 1c be dc 2c 04 be
       0.1504156 -0.15729235 -0.15277979 -0.12907737
0000c0 40 73 ae bd 7f 91 0c 3e 39 69 7c bd 2e 34 fc 3d
       -0.08518076 0.13727377 -0.061623786 0.1231464
0000d0 c3 ae 7e 3d 47 4a 2d 3e 74 e1 57 bd b9 04 0a 3e
       0.062178385 0.16922866 -0.052705243 0.13478364
0000e0 b7 12 db 3e 1b 27 c2 3e 11 a2 23 3e c9 62 37 3e
       0.42787716 0.3792046 0.15979792 0.17908777
0000f0 eb 83 71 3e b3 e1 ce 3e 72 70 dd 3e 20 81 ef 3e
       0.23585479 0.4040657 0.4324985 0.46778202
000100 e7 48 2b 3e 2b 87 ea 3d 17 e3 a3 3e 0d c8 cf 3e
       0.16727029 0.114515625 0.32009193 0.40582314
000110 c1 a6 dd 3e aa 9e e3 3d 16 b3 0a 3d 04 af 51 3e
       0.43291286 0.11114247 0.033862196 0.2047692
000120 89 85 e6 3d 3b 06 4e 3e bb 3d a5 3d 4a a5 77 3e
       0.112559386 0.20119564 0.08068415 0.24184147
000130 d2 c1 28 3d 0c 53 40 3d 4a af 5c 3e e4 40 a2 bd
       0.041200466 0.0469542 0.21551242 -0.07922533
000140 ec ba 7b 3e c8 1b 60 3e 39 4c a0 3e ba 4c b1 bc
       0.24583024 0.21885598 0.31308153 -0.021643031
000150 01 24 30 bd 71 e3 cd bd 00 b2 92 3e 92 c4 3b 3e
       -0.043003086 -0.10053147 0.28651428 0.18336704
000160 77 c4 3e 3e 3f b9 2e 3e 74 17 10 3d 48 38 47 bd
       0.18629633 0.17062853 0.035178617 -0.04863766
000170 6f d7 84 bd 7d 29 66 3e cf d3 b2 3d 83 e6 f7 3d
       -0.06486403 0.22476764 0.087318055 0.121045135
000180 d4 dd 90 bd 59 89 ce bd 56 83 2e be a5 8a aa 3c
       -0.0707356 -0.10084791 -0.17042288 0.020818064
000190 83 b8 20 bc 50 c5 b2 3d 5b 46 34 3e 48 08 17 3e
       -0.009809616 0.087290406 0.17604963 0.14749253
0001a0 93 c3 80 3e 5d 93 e4 bc c6 e8 5f bd 60 85 84 bd
       0.2514921 -0.0279023 -0.05466535 -0.06470752
0001b0 06 3f 03 3e 2a 40 aa 3d c9 41 34 be af a3 07 be
       0.1281701 0.083130196 -0.1760322 -0.13246034
0001c0 eb 77 31 bd 4d a4 54 bd 8c 8f 11 3e 9f f7 0b bd
       -0.043327253 -0.051914502 0.14214915 -0.034171697
0001d0 c5 cb 20 3e ee 29 76 bd 81 66 54 bd 68 64 8f 3d
       0.15702732 -0.06009858 -0.051855568 0.07001573
0001e0 50 f9 70 be 0f 8c ab bc 41 1e 60 be 3b 82 27 3d
       -0.23532605 -0.020940809 -0.21886541 0.04089568
0001f0 d1 66 91 bd b5 f0 53 3e d1 45 f1 3d c5 5c 95 3d
       -0.07099689 0.20697291 0.117808945 0.07293085
000200 c5 3d f5 3c 80 b0 65 3e c1 26 63 3e 9e 42 1b 3e
       0.02993668 0.2243061 0.22182752 0.15162131
000210 d8 d9 62 3d a4 6f a6 3e 07 69 af bc aa d5 98 3c
       0.055383533 0.3250705 -0.021412386 0.01865657
000220 c4 6a 61 3e 6f 90 eb bc 2a 35 97 3e a7 99 8e 3e
       0.22013384 -0.028755395 0.29532748 0.27851602
000230 bc 34 3c 3e bb c6 a5 3e cd 78 81 bb bf 8f 4c bc
       0.18379492 0.32378182 -0.003951168 -0.012485444
000240 cd b7 8b 3e 30 0e 2a bd 27 49 3f 3e b1 b6 94 3e
       0.27288666 -0.041517437 0.18680249 0.29045632
000250 b0 9b 00 3e 0f b6 26 3d
       0.1255939 0.04070097

conv1.bias f4 [6]
000000 04 db 20 3d e4 f5 d9 bc e9 b3 0c 3d a4 9b 1a 3c
       0.03927137 -0.026606508 0.034351263 0.009436522
000010 a9 fc 1a 3e d0 c9 38 bd
       0.15135445 -0.04511434

conv2.weight f4 [16, 6, 5, 5]
000000 a4 b5 90 bd 61 ec 8d 3d 39 cd 47 bd 7e d4 44 bb
       -0.07065895 0.06929851 -0.0487797 -0.0030033882
000010 d1 95 78 3d 5d 17 8f 3d c4 5a 71 bd 3d f9 5e bd
       0.06068975 0.06986878 -0.05892445 -0.05443691
000020 19 a8 7c bd 88 5e aa bd 3a cc b1 3c 57 ce 9c ba
       -0.061683748 -0.08318812 0.021703828 -0.001196335
000030 53 47 10 bc 7d 4e 59 3d 54 9f f4 bc d4 e8 90 bc
       -0.0088060675 0.053053368 -0.02986113 -0.017689146
000040 d0 ea 51 3c 6a ca 76 3d 41 0d 1c bd 71 1f 11 bb
       0.012812331 0.06025163 -0.038098577 -0.0022143985
000050 de 39 70 bd dc 7a a1 bd 1b df 02 bd 19 94 9b 3d
       -0.058648936 -0.07884762 -0.03195105 0.07596607
000060 36 5d 6e 3d f4 bb 69 3d 7f 8c 84 3d a5 be 74 3c
       0.05819436 0.05706401 0.0647211 0.014938031
000070 56 3f dd 3c 5a c3 9a bd 46 00 3d 3c 74 62 54 bd
       0.02700774 -0.075567916 0.01153571 -0.051851705
000080 36 88 e6 bc 1a c6 84 3c c5 0f a1 bd b8 9f e1 3b
       -0.028141122 0.016207743 -0.07864336 0.006885495
000090 8c 52 ea bb 99 7d 16 3d c3 94 b2 3c 7f 0c 2a 3c
       -0.0071509536 0.036740873 0.02179945 0.010378956
0000a0 63 2f ce b9 a9 3f 9e 3d 5e 88 e8 3c 91 b4 2d bd
       -0.00039326688 0.07726986 0.028385337 -0.04240853
0000b0 c0 72 bd bc 38 ab c8 bb 9c 68 5b 3d c3 28 8d 3d
       -0.023126006 -0.0061239265 0.05356656 0.0689254
0000c0 8d 2d 6a bd 74 e8 49 3c 97 47 c6 bc 4e 39 fe 3c
       -0.057172347 0.012323488 -0.024204059 0.031033184
0000d0 ef 8d 24 3d a1 c1 8a bc 97 69 80 3d 40 1c 8e 3d
       0.04017442 -0.016938033 0.0627014 0.06938982
0000e0 7f 6f a0 3c cc 51 09 bd 6d 2f ab bd 1d 2b 80 bd
       0.019584415 -0.033525273 -0.08358655 -0.06258223
0000f0 cf 96 9f 3c 5b 0d 87 3d d5 9b c9 bc 7c 4f 1e 3d
       0.01948109 0.06594344 -0.02461044 0.03865002
000100 33 2c 48 bd c9 b0 be bc 5f 4c 8f bd c1 6f f9 bb
       -0.048870277 -0.023277657 -0.069969885 -0.007612199
000110 e6 d2 16 3d a6 49 85 3d a0 a0 b5 3c a3 81 33 bd
       0.036822222 0.06508188 0.022171319 -0.043824803
000120 ae d5 d6 3b 13 ee b8 bc a9 7c 72 3d d8 2e c5 3c
       0.0065562343 -0.02257446 0.059200916 0.024070188
000130 48 bb c7 3c 3e c5 67 3b c3 8e a0 bd 0e c6 70 bd
       0.024381295 0.0035365368 -0.0783973 -0.05878263
000140 f8 2a 6d 3d c2 73 8f 3d b3 ce d2 3c 59 9e 9e 3c
       0.057902306 0.07004501 0.025733327 0.019362615
000150 dd c5 33 bd fe 7e 55 bc cd 29 3a bd 0c 79 a1 3d
       -0.04388987 -0.013030766 -0.04545002 0.07884416
000160 70 1d 8d bd 9d 2d b8 3c 7c f9 ad 3b c2 c4 db bc
       -0.068903804 0.022482688 0.005309282 -0.02682722
000170 a5 fc 8e bc c7 24 30 3d e7 dd 85 3d 40 fd 00 bd
       -0.017454455 0.043003824 0.06536465 -0.031491518
000180 19 d7 df 3b 84 70 b7 39 25 0a 22 3d 48 77 23 3d
       0.0068310616 0.0003498831 0.039560456 0.039908677
000190 3a 79 75 3b fc b4 58 3d 56 36 d9 bc 67 57 06 3d
       0.003745629 0.052906975 -0.026515167 0.032798197
0001a0 b3 38 5a 3d 44 1d b8 bc c0 20 38 3d 55 9e 0d bc
       0.05327673 -0.022474892 0.044953108 -0.008643706
0001b0 97 6c 2a bd 06 71 56 bd e3 9c a4 bc 98 94 8d bd
       -0.041607466 -0.05235388 -0.02009434 -0.06913108
0001c0 ed 05 66 bd 2c 08 34 bd c1 8d 4c bd 7e cf 2e bd
       -0.056157995 -0.043953106 -0.049939875 -0.04267835
0001d0 f3 10 46 bd 76 fa 92 3d e1 a4 cf 3b 54 f5 b0 3b
       -0.048356008 0.07176678 0.006336794 0.005400339
0001e0 aa 81 58 bd a6 45 a6 bd 29 ae 91 3d 94 51 89 bc
       -0.052858032 -0.08118753 0.071132965 -0.016762532
0001f0 f7 a3 cc 3c 57 1d 25 bd a5 df 63 3d 22 ed 94 3d
       0.024980528 -0.040311184 0.055633206 0.07271792
000200 6a 3a 28 bd 27 d4 61 3d 06 64 b1 3c c2 bb fe ba
       -0.041071333 0.055133965 0.02165414 -0.0019434618
000210 7c c9 72 bd fd 65 2b bd 43 2e 9f bd a5 4b 05 3d
       -0.05927418 -0.04184531 -0.077724956 0.032542843
000220 c8 73 6a bd ca 0b d2 3c 4d 60 97 bd 32 d1 de bc
       -0.057239324 0.025640387 -0.07391415 -0.027199361
000230 a9 94 6c bd c0 ed 62 bd cd 72 af 3c 30 17 4b 3d
       -0.05775896 -0.055402517 0.021417046 0.04958266
000240 f6 fa 7e 3c 2a 83 25 3c de cd 69 bd 8c 1e 9f bb
       0.015562763 0.010102073 -0.057081096 -0.0048559364
000250 fb a9 5d 3d 62 6f 6e bd c4 4a 50 bc 4f c9 b5 3c
       0.054117184 -0.05821169 -0.012713138 0.022190718
000260 b5 a4 7e bd dc 29 26 3c 50 ee bc bb 74 8e 86 bc
       -0.062168796 0.010141816 -0.0057657138 -0.016425349
000270 55 cd ed bb 4e 83 96 3c 38 38 cf 3c 14 a6 10 bd
       -0.0072571435 0.018373158 0.025295362 -0.035314634
000280 aa 57 00 bd 6f c6 3c 3d 9f 35 9e 3c ce 09 fb 3c
       -0.031333603 0.04608768 0.019312678 0.030644324
000290 b5 a0 0e b9 62 f4 90 3d 3d e7 8b 3d a8 cc 36 bc
       -0.00013602043 0.07077862 0.068312146 -0.011157192
0002a0 66 c8 b8 3a d0 42 0f bd eb 5a 12 3d 8a bf 2d ba
       0.0014097809 -0.034975827 0.035731237 -0.0006627968
0002b0 e5 83 50 bc 2b 78 6a 3d 53 c3 a5 bd 34 78 3f 3c
       -0.012726759 0.057243507 -0.08093896 0.0116863735
0002c0 7d cd 3c bd ee 9f a3 bd 72 ef 80 bd 25 45 1f bc
       -0.046094406 -0.079894885 -0.062956706 -0.009721075
0002d0 82 4d 40 bd 81 4c a6 3d 09 fc 9e bd 39 ba 6e bb
       -0.046948917 0.08120061 -0.07762916 -0.0036426915
0002e0 0c 59 07 3c e3 78 03 3d 3c 6f 9d 3d 97 ee ac ba
       0.0082609765 0.03209771 0.07687232 -0.0013193664
0002f0 f0 a1 8c 3d 5e 9b 95 3d 86 46 8b bd 4c 2d 5c 3c
       0.068668246 0.073050246 -0.06800561 0.013438534
000300 67 05 f7 bc 4a 42 96 bd e3 b1 7f bd f6 5b f3 3c
       -0.030153943 -0.073368624 -0.062425505 0.029706936
000310 b3 05 2f bd f4 8b 43 3d 5c 47 82 3d 23 08 08 bc
       -0.042730045 0.04774089 0.06361267 -0.008302721
000320 26 b6 8b bd f4 9c 69 bd e6 f1 8b 3d 23 ff df bb
       -0.068218514 -0.057034448 0.06833248 -0.0068358346
000330 aa 39 07 bd a1 d3 02 3d 62 b3 d2 bb bc bb d7 bb
       -0.033013977 0.031940106 -0.0064300755 -0.006583659
000340 23 64 a7 3b f8 2a 10 bd 9b c7 53 bd 20 78 80 bd
       0.005108373 -0.03519723 -0.05170403 -0.06272912
000350 66 22 a8 bd 5c 29 a5 bd 4b bf 23 bd 4a ad 8e 3d
       -0.08209686 -0.08064529 -0.039977353 0.06966646
000360 ce 40 db bc fc 78 9e 3d 8a a8 7f bd bc 79 62 bd
       -0.0267643 0.0773792 -0.06241659 -0.055291876
000370 80 5b a3 bd 9e fd 22 bd df bc 0c bd dc a5 5a 3d
       -0.079764366 -0.03979265 -0.03435981 0.053380832
000380 bc 93 ae bc 2f 7b e4 3c 61 82 07 3d 93 b5 93 3d
       -0.02131068 0.02789077 0.033083323 0.07212367
000390 a3 fa 2d bc 13 27 70 3d 62 4d 7c 3d 9c 2c 96 3d
       -0.0106188385 0.058631014 0.061597236 0.07332727
0003a0 ad 81 0c 3d 07 46 9d bd 72 5c 27 bc 5f 7d 02 bd
       0.034303356 -0.07679372 -0.010214912 -0.031857844
0003b0 98 39 12 3d 75 d6 01 bd f1 d6 82 bc b2 4e 2a 3d
       0.035699457 -0.031698663 -0.015971633 0.041578956
0003c0 99 f3 16 bd 6f a4 15 3d 16 39 e7 3c 07 c6 89 bd
       -0.036853407 0.03653377 0.028225463 -0.06727224
0003d0 fe f3 dc bc 16 87 66 3d fd d1 17 3d eb 3c 9a bd
       -0.026971813 0.05628117 0.037065495 -0.075311504
0003e0 d2 2e 7a 3d 23 38 27 3d 80 7b ab bc c0 e7 2b bd
       0.061079808 0.04082502 -0.020932913 -0.04196906
0003f0 33 f7 d2 3c ba f7 d9 bc 7e e5 69 3d 5c 75 25 3c
       0.02575264 -0.026607383 0.057103626 0.010098781

conv2.bias f4 [16]
000000 9e 47 1d bd 3b ac 9b bd 33 ad b3 3d 53 45 20 3a
       -0.038398378 -0.0760121 0.087732695 0.0006113846
000010 4f 35 94 3d 7e 42 6b bd a6 be b4 3d c8 33 f3 3c
       0.0723673 -0.05743646 0.08825426 0.029687777
000020 af 91 e2 ba e4 41 5d 3d dd 1c 1e bd 91 1d 93 3d
       -0.0017285849 0.054017916 -0.038601745 0.07183374
000030 fd 69 6d bd 08 e6 51 bd a2 0c 32 3d cd eb 9c bd
       -0.057962406 -0.051244766 0.04346908 -0.07662163

fc1.weight f4 [120, 256]
000000 4a ff 81 3d c2 de 62 3d 78 b4 4e bd 0b 91 5e 3d
       0.06347521 0.05538822 -0.050465077 0.054337543
000010 97 3c 38 3d da 02 58 3d 11 79 3e bd 78 c5 4d 3d
       0.044979658 0.052737094 -0.046502177 0.05023715
000020 79 32 14 3d 3b 22 10 3d 9b 91 61 bd 9e 0e 4e bd
       0.036180947 0.035188895 -0.0550705 -0.05030691
000030 52 92 e3 bc 0b 63 d2 bc 8a 69 72 bd 49 43 4d 3d
       -0.027779732 -0.025681993 -0.05918268 0.050112996
000040 be ce 29 3d b3 2e 3b bd 08 cd 14 bd 8c 4f 9c 3c
       0.04145693 -0.045698833 -0.036328346 0.0190809
000050 d7 d3 e9 3c dd b6 a8 bc ad 7d dd 3a 96 3f 0c bd
       0.028543396 -0.020595009 0.0016898416 -0.034240328
000060 df f4 1c 3d b9 4c 4d bd da af 3e 3d 9d 52 19 3d
       0.038319465 -0.050121997 0.046554424 0.0374323
000070 cb 6d 31 3d c2 91 e9 3c b1 76 03 bd 2a d3 77 bd
       0.043317597 0.028511886 -0.032095615 -0.060504116
000080 49 5b 73 3d fd a5 3a bd 64 4c 2d bd 73 6d f4 bc
       0.05941323 -0.045568455 -0.04230918 -0.029837346
000090 b4 31 a9 3c 7e d1 ed 3c 10 2a 42 3d 7c 23 4e bc
       0.020653583 0.029030558 0.047403395 -0.012581702
0000a0 5d a9 c8 b9 f7 3f 81 3a 09 56 ff bc 3c 1b 99 bc
       -0.00038273158 0.0009860982 -0.031168954 -0.018689744
0000b0 ca 3d 1b bd 16 c0 24 bb 5a d2 e8 bc 23 f7 22 bd
       -0.037900724 -0.0025138906 -0.028420616 -0.03978647
0000c0 d6 27 3e 3d 0c 4e ff 3c 2f d7 1a 3d 37 48 5e bd
       0.04642471 0.031165145 0.03780287 -0.05426809
0000d0 97 06 6d 3d 4c 0e 5b bd eb b6 07 bd af dc 6a 3c
       0.057867613 -0.05348043 -0.03313343 0.014334842
0000e0 41 6e 0a 3c db 59 eb bc fa cd 24 bd 31 a7 b7 3c
       0.008449138 -0.02872937 -0.040235497 0.02241859
0000f0 a6 ac 48 bd aa b8 17 bd 35 79 a2 3b fd fa c0 3c
       -0.048992775 -0.037041344 0.0049582967 0.02355718
000100 24 25 25 bd 5f ce cf bc 5b 07 ca bc db 38 0b bd
       -0.040318623 -0.02536696 -0.02466171 -0.03398977
000110 9f d7 76 3d 32 29 84 bc 00 df 93 3c 85 93 23 bd
       0.060264226 -0.016132925 0.01805067 -0.039935607
000120 ca a6 61 3d 4f 59 d0 3c 72 69 0c 3d 4a 0f 92 3b
       0.055090703 0.02543321 0.034280248 0.004457389
000130 91 05 99 3d 5f 38 11 bd 96 16 75 bc 60 e8 54 bd
       0.07471765 -0.03545415 -0.014958998 -0.051979423
000140 5e 8f 4f 3c e9 2e 6f bd 53 c9 72 bd ff ce 96 3c
       0.012668459 -0.058394346 -0.05927403 0.01840925
000150 2a 49 8d bb b1 66 87 bb ad 7b 4b 3d 79 57 fd bc
       -0.0043117004 -0.004132115 0.049678493 -0.0309255
000160 c7 6c 59 3d fd 07 0c 3d c6 7d 62 ba c7 30 30 bd
       0.053082254 0.034187306 -0.00086399575 -0.043015268
000170 4f 5b 46 bc e8 6b ce bc c4 09 e7 3a ca be 6e bd
       -0.012106731 -0.025197938 0.0017626812 -0.05828742
000180 fa e5 09 bd 60 23 0e bc fd 6f db 3c 33 5d 81 3d
       -0.03366659 -0.008675426 0.026786799 0.063166045
000190 ce 32 cd bc c3 f8 c6 3c 91 77 93 3c 1b 36 12 bd
       -0.02504864 0.02428854 0.01800135 -0.03569613
0001a0 2a 09 bf 3b fd 62 6d bb 14 79 89 3c 80 fc 6f 3d
       0.00582995 -0.0036222332 0.016781367 0.058590412
0001b0 b4 ca 45 3b 88 b9 82 3b 72 f2 bf 3b 4f a4 09 3c
       0.0030180635 0.003989402 0.005857759 0.008400991
0001c0 24 b6 05 3d 2e 33 43 3c 7e f7 86 3c e9 00 2f 3d
       0.032644406 0.011914058 0.016475435 0.042725477
0001d0 e8 55 58 3b a0 29 07 bd 40 4e 37 bd a2 1b 4e 3d
       0.0033010188 -0.03299868 -0.04475236 0.05031932
0001e0 aa 44 80 3b 60 7d 80 bd ed bf 82 bd 28 65 59 bd
       0.0039144354 -0.062739134 -0.06384263 -0.053074986
0001f0 59 28 7f 3d 1a 7e e9 3a 2c 65 7d 3d 63 4e 5d bd
       0.062294338 0.001781407 0.061864063 -0.054029834
000200 8b 6e 2c bc ea 2b 7a bd 41 33 18 bd 37 a6 ab bc
       -0.010524402 -0.061077036 -0.037158255 -0.02095328
000210 dd b1 23 3d ea d8 84 bc 54 cb a4 bb b3 4f 16 3c
       0.039964546 -0.016216714 -0.0050291214 0.009174275
000220 5f 8f 3d 3d 8a d1 8a bb 76 d5 7b 3d 10 e0 6f 3b
       0.046279307 -0.004236405 0.06148287 0.0036602058
000230 66 35 e2 bc c2 63 1b 3c b4 b8 48 3d 5d 88 f7 3c
       -0.027613353 0.009484233 0.04900427 0.03021639
000240 e1 bd 5b 3d 63 82 5f 3d ea 3e f4 bc 50 de 98 b9
       0.05364788 0.054567706 -0.029815156 -0.00029157335
000250 62 f6 60 3d 38 3b 89 3d fa 70 b2 b9 29 ab 8c 3d
       0.05492247 0.06700748 -0.0003403498 0.06868584
000260 f2 57 03 bd 27 28 5e 3d e1 3c 27 bd b7 07 36 bd
       -0.032066293 0.05423751 -0.040829543 -0.04444095
000270 ef d1 8f 3d a5 18 5c 3c 70 e0 8a bc 34 0d 18 3d
       0.070224635 0.01343361 -0.016952723 0.037121966
000280 c0 1f 6b bc c9 ca 11 bd 78 bc e7 3c 06 85 50 3d
       -0.0143508315 -0.03559378 0.028288111 0.05090811
000290 a3 87 80 3c 42 04 32 3c 7c c3 df 3a 9c a1 fb 3c
       0.015689677 0.010865273 0.0017071809 0.03071671
0002a0 fc 3c 88 bd 9b b9 94 bd ad a7 4b bd e4 6a 2c bd
       -0.06652257 -0.07261964 -0.049720455 -0.042094126
0002b0 3e f9 85 3d ee 61 37 bd 45 00 3c bd e4 25 f2 bc
       0.0654168 -0.044771127 -0.045898695 -0.029559083
0002c0 39 7e 5d 3c 86 78 17 3d 44 b0 e6 3c cd 55 e4 bc
       0.013518863 0.036980174 0.028160222 -0.027872944
0002d0 2e c3 dd bc fa 67 82 3c 8b fd 56 bc e6 b5 8c 3d
       -0.027070608 0.01591872 -0.013121973 0.06870632
0002e0 a4 94 2b 3d 49 90 20 bd c9 28 cf 3c 67 ab 7e 3c
       0.0418898 -0.0392001 0.025288003 0.015543795
0002f0 81 3e 89 3c db 6b e0 bc 5e 87 08 3d 9e 2b 3a 3d
       0.016753437 -0.02739518 0.03333222 0.045451753
000300 a3 3c c6 bc 52 21 c1 bc b9 59 7d 3c 7a 47 5d 3d
       -0.024198836 -0.023575459 0.015463286 0.054023243
000310 8e 48 aa bc 18 80 56 3c 11 36 9c bc a9 8b f4 bc
       -0.02078655 0.013092063 -0.01906875 -0.029851751
000320 a4 a0 6e bd 58 82 29 bd 8a ca 8a 3b 40 2c 66 3d
       -0.058258668 -0.04138407 0.0042355703 0.056194544
000330 0e ae 19 bd 61 26 9b 36 3c c3 35 bc 4e 20 74 3c
       -0.037519507 4.623828e-06 -0.011093911 0.01490028
000340 03 aa 0d bd 60 39 1f 3d c0 b4 ef bc 69 b7 16 3b
       -0.034585964 0.038873076 -0.029260993 0.0022997505
000350 f9 15 76 3d 74 3c 91 ba b5 c3 59 bc af c5 47 3d
       0.06007955 -0.0011080639 -0.013291289 0.04877251
000360 d8 f3 8c 3c dd 1e f9 bb d4 7e f6 bc bc d2 9e bd
       0.017206118 -0.007602556 -0.030089773 -0.07755038
000370 cf 92 69 3d bf c6 9c 3d 2d 9b 27 3d 25 e7 d2 3b
       0.057024773 0.07655095 0.04091947 0.006436246
000380 54 5a 2f bc 8d 09 1f bd 3c cc ad bc 6f f1 e4 bc
       -0.010702688 -0.038827468 -0.02121555 -0.027947156
000390 16 e8 9b 3c 7c a9 78 3d 73 9a 42 3d e0 97 07 3d
       0.019031566 0.060708508 0.047510576 0.033103824
0003a0 13 6f 5e bd 14 82 cc bc e5 bd 25 3d d4 35 3e bc
       -0.054305147 -0.02496437 0.0404643 -0.011609513
0003b0 dc 6c 55 3d 5a 11 93 3d b8 11 41 3c 4a 4a 94 3c
       0.05210577 0.07181044 0.01178401 0.01810183
0003c0 02 28 6d 3c d4 1a 0c 3d d2 37 46 3b b4 3c 6c 3d
       0.014474871 0.034205273 0.0030245674 0.05767508
0003d0 a9 eb 0f bd 79 18 62 bb f6 13 2b 3c cb 47 08 bc
       -0.035136852 -0.003449945 0.010441771 -0.008317898
0003e0 46 bc 64 bd 36 41 0d bd 6c dd 60 3a 91 8b b3 bc
       -0.055843614 -0.034486018 0.00085779163 -0.021917136
0003f0 82 4c 08 3d 39 ec 01 bd e4 45 6e bd 72 44 16 bd
       0.03327609 -0.03171942 -0.05817212 -0.03668637

fc1.bias f4 [120]
000000 f9 0f e7 bc b5 f9 00 3d 42 ad 1b 3c 74 00 8d 3c
       -0.028205859 0.03148814 0.009501757 0.01721213
000010 2a fb 6b 3d 29 78 72 bd 09 af cc 3c 0a 8d 72 bd
       0.057612576 -0.059196625 0.024985807 -0.059216537
000020 49 90 6d bd 57 1e 24 bd 21 34 32 bd fb 73 3d bd
       -0.05799893 -0.040067997 -0.043506745 -0.046253186
000030 0a 63 0f bd a5 95 91 3c 1c 9d 16 bd c8 27 5c bd
       -0.03500656 0.017771551 -0.036770925 -0.053748876
000040 ed 02 81 3c 80 4a 15 bd 00 c3 80 3d 99 03 e7 3b
       0.015748465 -0.036448 0.06287193 0.0070499894
000050 d1 20 d2 bc 7c 49 62 bd 15 d6 35 bd 59 0e 05 bb
       -0.025650414 -0.05524586 -0.044393618 -0.0020302741
000060 e0 3f ad 3a ab 57 71 bd ac 10 61 bd e8 18 6d 3c
       0.0013217889 -0.058921497 -0.05494754 0.01447127
000070 34 fc 73 3c 00 cb 6b 3d 73 65 07 3d e9 c0 25 3d
       0.014891673 0.057566643 0.033055734 0.040467177
000080 21 b0 54 3d 2a 74 e3 3c f3 10 36 bd 66 b0 45 bd
       0.051925782 0.027765352 -0.044449758 -0.04826393
000090 1f 2f b0 bb 25 2f d9 bc a9 7f 2c 3d e0 11 02 3b
       -0.005376711 -0.026511738 0.042113934 0.001984708
0000a0 58 bb 21 3d 58 62 64 3c 00 79 cd 3a 05 d4 91 bb
       0.039485306 0.013939463 0.001567632 -0.0044503235
0000b0 c6 49 43 bc 04 30 eb bc f9 53 6e 3d aa 9e 28 3d
       -0.011919444 -0.02870942 0.05818555 0.04116694
0000c0 90 06 9a 3d 5f d1 d2 bc 8f 7b 61 3d 92 6e 57 39
       0.07520783 -0.025734602 0.055049475 0.00020545188
0000d0 b4 1c 52 3c fe 3e ba bb 10 b4 71 bc 53 1f 71 3c
       0.012824226 -0.005683779 -0.014752403 0.014716941
0000e0 65 5e 82 3c 0c 1a 2e bd 9c 1a f5 bb e1 41 76 3d
       0.015914151 -0.04250531 -0.0074799787 0.06012142
0000f0 8a 84 5e 3d dd 10 17 3d cc 32 48 3d 04 dc 91 3c
       0.054325618 0.036881316 0.04887657 0.017805107
000100 79 7e 19 3d f2 e4 80 bd 2e ee 53 3d 17 2a f9 bc
       0.03747413 -0.06293668 0.051740818 -0.030415578
000110 03 37 d3 bc 42 ee d7 3b 75 d3 81 39 4e 54 05 3d
       -0.025783068 0.006589682 0.00024762345 0.032551102
000120 6c a2 a5 3c 88 b5 01 bd 84 78 76 bd 16 68 7f bc
       0.02021905 -0.031667262 -0.060173526 -0.015588781
000130 fd 52 51 bd 94 55 3b 3d 73 8e 4a 3c 6d d5 c8 bc
       -0.051104534 0.04573591 0.012363064 -0.024515832
000140 37 7c fb 3c f9 5a 29 3d b6 13 41 bd 55 75 6b 3d
       0.030698879 0.041346524 -0.04713794 0.057484943
000150 c9 d8 5a bc 0b 97 8a 3d 9e 53 7f 3c f8 87 b2 bc
       -0.01335735 0.067670904 0.015583901 -0.02179335
000160 68 84 9f 3c 26 9a c3 bc 7a c8 f2 3b d1 a4 35 bd
       0.019472316 -0.023877215 0.0074091526 -0.044346634
000170 86 4f eb 3c e4 b7 ea bc a4 eb d4 bc 2a e2 0f bd
       0.028724443 -0.028652139 -0.025991268 -0.035127796
000180 ac cc 08 3c 19 11 64 3d 65 e9 77 bc 8f 13 35 3d
       0.008349579 0.055680368 -0.015131329 0.044208106
000190 dd b1 ee b9 09 36 85 3a 66 45 89 bc c6 c7 52 bc
       -0.00045527416 0.0010163198 -0.016756725 -0.0128650125
0001a0 29 9f 81 3d 29 8e 2a bd e8 83 6b 3d cd 64 60 3d
       0.063291855 -0.04163948 0.057498842 0.05478363
0001b0 f3 bc 26 3d 3d 72 f9 3a cc 0e 6d 3d 5b a6 c6 3c
       0.04070754 0.0019031238 0.05787544 0.024249246
0001c0 75 d7 4f 3c 9e 79 ff 3b fe e5 51 bc 24 67 da 3a
       0.012685646 0.0077964803 -0.012811182 0.0016662818
0001d0 30 46 08 3d ed 6e 34 3c 26 43 39 3d 96 01 a5 3b
       0.03327006 0.011012775 0.045230053 0.0050355894

fc2.weight f4 [84, 120]
000000 c7 df a6 bc 34 2f bd 3d 85 fa 7e 3d 50 9a e1 3d
       -0.020370377 0.09237519 0.062250633 0.11015761
000010 0a 11 cd 3b c3 a9 89 3d 01 d1 bf bd ee 45 80 bc
       0.0062581347 0.067218326 -0.09366036 -0.015658345
000020 63 dc 68 bc eb 37 a1 3d 13 b8 ac 3d 23 46 86 3d
       -0.014212701 0.07871994 0.08433547 0.06556346
000030 8f 73 b1 bd 4c 5a f1 bc c0 b2 44 3d fc 90 50 3d
       -0.08664619 -0.029462002 0.04802203 0.050919518
000040 e5 e0 86 bd 65 97 7e 3c f1 fd 46 bd d3 d4 bf bd
       -0.06585864 0.015539025 -0.04858202 -0.09366765
000050 7e 4c d9 bb 7c d8 0c bd 35 ee f5 3c 0a 0b 8e bd
       -0.006631433 -0.034386143 0.030020813 -0.06935699
000060 bd 86 ab bd 75 5b 02 bb a1 1d 56 3d b2 51 4f bd
       -0.08375309 -0.0019890938 0.05227435 -0.05061502
000070 b6 39 94 3d 27 75 cd 3d 48 e5 99 3d f6 1c 57 3d
       0.0723757 0.10032111 0.07514435 0.052517854
000080 cf b6 a5 bd 0a cd 47 bd 39 92 73 3d ca c1 b4 3b
       -0.080915086 -0.048779525 0.05946562 0.0055162655
000090 77 15 95 bd e3 5c 8d bd 74 6c a7 3c 33 17 43 3c
       -0.07279485 -0.06902482 0.020437457 0.011907387
0000a0 34 ea 1e bd 4e 12 40 3c 98 ca 75 3d 5f f6 39 bd
       -0.038797572 0.011723114 0.06000766 -0.045400973
0000b0 35 4c 15 bd b2 a2 aa bd 38 32 8e bd 96 3c 91 bd
       -0.03644963 -0.08331813 -0.06943172 -0.07091634
0000c0 9b 77 d8 bd a1 7d 86 bd cf fc 54 bd b7 28 cd bd
       -0.10569688 -0.065669306 -0.05199891 -0.10017531
0000d0 e2 43 a1 3c b8 f1 a1 bc c4 52 b4 3d 77 a9 b2 bd
       0.01968569 -0.01976858 0.08804849 -0.08723729
0000e0 94 37 29 bb 1c 1c b3 bd 09 af 16 bd 23 27 62 3a
       -0.002582048 -0.08745596 -0.03678802 0.00086270476
0000f0 f7 bd 9a 3d 76 88 66 3d 46 75 ba bd 89 67 9b bc
       0.07555764 0.056282483 -0.091043994 -0.018970268
000100 08 a5 b4 3c e5 c0 41 3d 8b b1 12 3d 91 47 f3 3c
       0.02205135 0.0473031 0.03581385 0.029697211
000110 78 24 e1 3d d7 f1 b9 3d 91 be ca bc 95 21 a5 3d
       0.10993284 0.090793304 -0.024749072 0.08063046
000120 83 1f 06 3e 3b 29 78 bd eb 22 e8 3d de b0 11 bd
       0.13097958 -0.060586195 0.11334785 -0.035569064
000130 57 9f 92 bd f4 5d 2d 3d 33 77 97 bd ea 58 32 3d
       -0.07159298 0.04232593 -0.07395782 0.043541826
000140 7a cf 08 3d fc 2b 8b 3d 05 76 ab 3d 99 46 28 3d
       0.03340099 0.06795499 0.0837212 0.041082952
000150 3e 99 08 3d 5a 05 59 bd 3c e7 8e 3c 11 a3 ad bd
       0.03334927 -0.05298362 0.017444246 -0.08478368
000160 a4 15 6c bd 82 53 19 bd 6c a7 b6 bd a5 95 e0 3d
       -0.057637826 -0.037433155 -0.08918652 0.109660424
000170 8f 1b a6 bd a3 ea 6e 3d 37 f7 fb 3c 25 f4 aa 3d
       -0.08110725 0.058329236 0.03075753 0.08347348
000180 9f 6e 0d bc 24 80 7b 3d 7e 64 3a bd e5 ae 96 bd
       -0.008632331 0.0614015 -0.045505993 -0.07357577
000190 6b 34 b7 bd 80 dc 74 3d d0 51 5c bd fb a0 2c 3d
       -0.08945545 0.059780598 -0.05378896 0.04214571
0001a0 ec e8 8e 3d e0 43 f5 3c c4 69 99 3d 7a 90 31 bd
       0.0697802 0.029939592 0.07490876 -0.043350674
0001b0 46 aa 9f 3d fa 0d 24 bc 64 2e b4 3d 4f 65 99 bc
       0.07796149 -0.010013098 0.08797911 -0.018725066
0001c0 4e c2 7a bd a9 9a 9d bd 0d d6 a9 3d e4 3e 44 3d
       -0.06122046 -0.07695515 0.0829278 0.04791154
0001d0 a9 f1 a0 3d 28 40 f9 3c 2c 7b 87 bd 8f c7 d1 3d
       0.07858593 0.0304261 -0.0661529 0.10243141
0001e0 f8 d2 91 3d 14 81 e5 bc 70 8a aa bd 90 cd 21 3c
       0.07120317 -0.02801565 -0.08327186 0.00987567
0001f0 18 96 39 bc 7e 6d 5c bd 8e 1c ad bd a8 e8 a7 bd
       -0.011327289 -0.053815357 -0.08452712 -0.081986725
000200 75 b7 6d bd dc 2f 80 3d e4 c2 00 bd c4 f8 8e bc
       -0.058036286 0.062591285 -0.031435862 -0.017452605
000210 40 d5 8f ba 10 29 13 bd f8 b2 b3 3c 0f fb 98 bd
       -0.0010973588 -0.035927832 0.021935925 -0.074697606
000220 0c 61 8b 3d d0 f6 ea 3b 3c f2 55 bd a0 23 cf bc
       0.068056196 0.0071705356 -0.052232966 -0.025285542
000230 38 27 7a 3c ed 8d 09 bd 68 e2 a6 3d 24 55 57 3d
       0.01526814 -0.033582617 0.08148652 0.05257143
000240 48 e9 09 bd 00 dd e6 bc 2d 99 2c bd 20 ae e9 3c
       -0.03366974 -0.028181553 -0.042138267 0.028525412
000250 15 51 9a bd 80 12 40 bc 7b 81 22 bd 50 d8 23 3c
       -0.075349964 -0.011723161 -0.039674263 0.010000303
000260 60 86 b8 bc cf 55 8b bd 9a 57 02 bd 36 f9 b4 3d
       -0.022525012 -0.06803476 -0.031821825 0.08836596
000270 80 e5 2a bd 78 fb 98 3c a4 88 40 bd 44 26 aa 3d
       -0.041722775 0.018674597 -0.04700531 0.0830808
000280 1c 38 23 bd f0 61 45 3d 30 04 dc bc 80 6f 49 bc
       -0.039848432 0.048189104 -0.026857466 -0.01229465
000290 8a 73 87 3d b0 60 6d bd 7c 55 a8 bc 00 a7 4d bc
       0.06613834 -0.057953537 -0.020548575 -0.012552023
0002a0 58 45 8c 3d 48 62 f1 3c 3d 0d 4d bd 38 36 57 3d
       0.06849164 0.02946581 -0.050061453 0.05254194
0002b0 bf f7 35 bd 50 2e 9a bd c8 3d 2c 3d 82 77 02 3d
       -0.044425722 -0.07528365 0.042051107 0.031852253
0002c0 0c 90 93 bd cc d8 13 3d 07 e5 30 bd ee d6 98 3d
       -0.07205209 0.036095425 -0.043187167 0.074628696
0002d0 52 a7 8b 3d 3c a6 80 3d c0 61 88 bd 00 c8 90 bb
       0.06819023 0.06281707 -0.06659269 -0.004418373
0002e0 9a 0d 81 3d 9d a0 24 bd 63 5d 06 bd 1c ca d4 3c
       0.063014224 -0.040192235 -0.032803904 0.02597528
0002f0 20 72 f4 bb cf 42 ae bd 26 25 a4 3d 60 88 18 bc
       -0.007459894 -0.085088365 0.08014898 -0.009309858
000300 91 67 a8 bd 36 dd b9 3d 66 5c 04 bd cb fe 82 bd
       -0.08222879 0.09075396 -0.03231468 -0.06396254
000310 4c a8 6a 3d d4 f6 9f 3d f8 4e 10 bc d8 d9 60 3d
       0.057289407 0.078107506 -0.00880789 0.054895252
000320 0e 6b 8a 3d 52 46 99 3d 3c e6 1c 3d 88 fc 15 3d
       0.067587 0.07484116 0.038305506 0.036617786
000330 b2 5b 05 bd d4 a9 65 bd ba 06 9e bd b0 a9 b5 bd
       -0.03255815 -0.056070164 -0.07716127 -0.08870256
000340 7e 64 ac bd 5c a1 c8 3c 67 6a 01 bd c8 d1 96 3c
       -0.08417605 0.024491005 -0.031595614 0.018410578
000350 1a e8 83 3d 00 fc 1e 3d b4 5e 37 3d 5f 2d 11 bd
       0.06440754 0.038814545 0.04476805 -0.03544366
000360 1a 11 7a bd 68 2d 0f 3c c4 dc 8d 3d d2 0a 07 bd
       -0.061051466 0.008738853 0.06926873 -0.032969303
000370 00 e5 bc b9 63 15 8a bd fa c1 9c bd 09 0c 52 bd
       -0.00036028773 -0.067423604 -0.076541856 -0.05128101
000380 16 47 7c bd 86 98 90 3d 50 ff 79 3d 32 14 9e 3d
       -0.06159123 0.070603415 0.0610345 0.07718696
000390 f4 d2 73 3d 5a ff 93 3d 4a 0f b2 bd a4 da b7 3c
       0.059527352 0.07226439 -0.086943224 0.022443123
0003a0 bb 6c 81 bd 20 90 5c bc d4 21 d4 bc 9e 06 95 3d
       -0.06319567 -0.013462096 -0.025895037 0.07276653
0003b0 6c e4 8c 3d 74 cf b2 3d 44 8f e8 3c 2a a9 8e 3d
       0.068795055 0.08730975 0.028388627 0.06965859
0003c0 ca 9b 9b bd 88 de c3 3c f3 0b c8 bc 31 82 3c bd
       -0.07598074 0.023909822 -0.02441976 -0.046022598
0003d0 6c 58 36 3d 76 54 6b 3d e8 28 86 bd 39 a4 e0 bd
       0.04451792 0.057453595 -0.06550771 -0.10968823
0003e0 96 cb 40 3d 79 0d ae bd 2b c6 1e 3d d2 88 a8 bd
       0.047069155 -0.084986635 0.038763206 -0.082292214
0003f0 cf 5d 0d 3c 26 74 8c bd 80 16 f1 3b 40 ee 73 3d
       0.008628323 -0.06858091 0.0073574185 0.059553385

fc2.bias f4 [84]
000000 42 7d d6 3c 80 2a bb bb 9c 59 f6 3d 73 70 02 3d
       0.026182774 -0.0057118535 0.120288104 0.03184552
000010 8c 55 68 bd 4b 50 3d 3d cb 3f 79 bd f8 b2 9c bd
       -0.05672221 0.04621915 -0.060851853 -0.07651323
000020 0a 02 5d 3d 93 ab 95 3d 0c 0c d4 bc 7d 26 d4 bc
       0.053957023 0.07308116 -0.02588465 -0.025897259
000030 f8 a6 8b bb cd a7 a0 3d 63 e0 97 bd 3a 29 ad 3b
       -0.0042618476 0.078445055 -0.07415845 0.0052844556
000040 9a 87 17 3c f6 0e 0a 3c 79 2b ce bb f6 4b 27 3d
       0.0092486385 0.0084264185 -0.0062918034 0.040843926
000050 94 5c 75 3d de ac 90 bd d1 0c 35 bd 16 11 bc bd
       0.059902743 -0.07064222 -0.044201676 -0.091829464
000060 38 8e 2e bd 05 07 93 3c ad 12 e9 bc 74 2e 91 bd
       -0.0426161 0.017947683 -0.028451288 -0.07088938
000070 b5 0d 56 bd a3 9d bf bc ee 41 6f bd 52 16 06 bd
       -0.052259166 -0.023390597 -0.058412485 -0.03273613
000080 da 62 74 bd 53 d7 9e bd 5d 03 7e 3d 9b f6 6b bc
       -0.059664585 -0.077559136 0.062014926 -0.014402057
000090 d6 3b e0 ba cc fd 9e 3b b2 ac 52 3d ac 44 1e bd
       -0.0017107676 0.0048520323 0.051434226 -0.03863971
0000a0 98 4a 57 bd 63 b2 3e bd 84 dd c1 bc 1e ec d4 3a
       -0.052561373 -0.04655684 -0.023665197 0.0016244685
0000b0 fe 50 16 bd 78 36 9e bd ba 63 4d 3d 33 c4 a0 bd
       -0.036698334 -0.07725233 0.050143935 -0.07849922
0000c0 3c 1f 47 3d cf 85 42 3d 8b ed be 3c 7d 66 60 3d
       0.04861377 0.04749089 0.023306629 0.05478524
0000d0 7d 39 c5 3d 08 eb 94 3c 88 d8 9e bd 6e 33 1f 3c
       0.09630106 0.018178478 -0.07756144 0.009716852
0000e0 9b f5 a9 3c d7 e2 b8 bd a5 00 13 3d d0 bf 8c bc
       0.020746997 -0.09027641 0.035889287 -0.017181307
0000f0 40 03 52 bc db d1 17 bc b6 6b c6 3c 98 03 aa 3d
       -0.012818158 -0.009266342 0.024221282 0.08301467
000100 8a ec ab 3d cd 36 0f bc 3b 9e d0 bc bc 21 4c bd
       0.083947256 -0.008741093 -0.025466075 -0.04983686
000110 5c 1a b2 3c d9 41 6c bd 47 39 a7 3d 04 65 3c bd
       0.021741085 -0.057679985 0.08165222 -0.045994774
000120 b1 79 b0 bd 69 d7 5a 3d e5 21 fa bc f4 c2 0c 3e
       -0.08616961 0.053428087 -0.03053374 0.13746244
000130 3d 1a dd 3d 94 50 0f 3d 49 63 a7 3d 01 b4 40 bd
       0.1079602 0.034988955 0.08173234 -0.047046665
000140 fa 7d 0e 3b 1b d5 11 3e b0 65 1a 3d 3d a4 5a 3d
       0.0021742568 0.1424145 0.037694633 0.053379286

fc3.weight f4 [10, 84]
000000 04 5e 04 be bc 45 dc bd 96 b2 9f 38 11 88 d9 bd
       -0.12926489 -0.10755488 7.614975e-05 -0.10621656
000010 ac 04 46 bd 5d 0e de bd be d7 e3 3d c4 1c 2e 3e
       -0.0483443 -0.10842583 0.11125134 0.1700316
000020 84 12 db bd 26 11 2b be 01 1d b1 3d 5a 27 90 3c
       -0.10696891 -0.1670576 0.0864811 0.01759689
000030 79 7a bc bd 11 aa 4c 3e 4a 6b 0a bd 79 b5 1a 3e
       -0.09203047 0.1998675 -0.033793725 0.15108289
000040 44 77 99 bd a5 a5 12 bd 8f 99 d8 3d 30 de 03 3d
       -0.07493451 -0.035802502 0.10576164 0.032194316
000050 10 d1 57 bd 91 a6 b1 bc 03 d4 d9 3d 8a 67 df bd
       -0.052689612 -0.02168587 0.10636141 -0.109084204
000060 a2 cb e7 3d 6e e1 19 3d 9b 63 d5 bd b8 36 e6 bd
       0.11318137 0.037568502 -0.10419389 -0.112409055
000070 f8 86 c5 3b 3a 4e f5 bd fd 88 65 bc 64 6a c4 bd
       0.0060280524 -0.11977811 -0.014009711 -0.09590605
000080 24 b1 a9 3d 5c 26 4e bd 57 da d0 bd 8f f6 88 3e
       0.0828574 -0.05032955 -0.10197895 0.2675061
000090 7c 3e b8 3d 63 bf 1b bc 2f dc 22 bd 09 10 08 bd
       0.08996293 -0.009506079 -0.039760765 -0.033218417
0000a0 50 65 fc bb da 80 d3 bd 71 b9 99 bd 9d 5f e5 bd
       -0.007702507 -0.10327311 -0.07506073 -0.111998774
0000b0 d5 b2 04 3d e8 4c dd bd 91 fc 20 bd 69 59 cb bd
       0.03239711 -0.10805684 -0.039303366 -0.09929163
0000c0 03 27 5f 3d 04 19 65 bd 49 fb b2 bd 88 5b af 3c
       0.054480564 -0.05593206 -0.08739335 0.02140595
0000d0 ea fe 48 be 4d c3 42 3e 35 05 9f 3d 69 0e fe bd
       -0.19628492 0.19019814 0.07764665 -0.12405092
0000e0 bf 98 3e bd 73 be 94 3d 6b 78 48 bd 49 3b 8e 3d
       -0.04653239 0.07262888 -0.048942965 0.069449015
0000f0 65 55 c2 3d 13 06 d6 3d 7c 58 b8 bb 71 85 3b be
       0.09488944 0.10450377 -0.0056257825 -0.18312623
000100 74 7a a1 3c ec 33 c2 3c 22 c8 01 3a 01 87 d5 bd
       0.01971171 0.023706399 0.00049507816 -0.104261406
000110 29 c7 71 bd 08 63 e3 bd 6b ab 0b be 7d 0e 29 bc
       -0.059027825 -0.11102873 -0.1363961 -0.010318396
000120 28 6a db bd 74 53 c5 bc 1d 83 5f 3c e6 54 c0 bd
       -0.10713607 -0.024087645 0.0136421 -0.09391193
000130 04 a7 33 3e 2f 81 92 bd d5 f8 8d bc c4 e2 b3 bc
       0.1754418 -0.07153546 -0.017330566 -0.021958716
000140 dd 0b 3a 3e 24 50 f9 3d 6d 10 0c 3d b7 11 8d 3c
       0.18168588 0.12173489 0.034195352 0.017220361
000150 d7 1f 27 be e0 c8 2e 3b 79 9e 35 3e 88 2b c4 bc
       -0.1632074 0.0026670024 0.17736234 -0.023946539
000160 c3 72 8c 3d e5 1e 96 3d 33 2d 54 3d 25 53 d9 bd
       0.068578266 0.073301114 0.051800918 -0.10611562
000170 26 85 d1 3d 0a b4 1e 3e 88 dc 14 3c e0 bf 22 bc
       0.10230474 0.15498367 0.009085782 -0.009933442
000180 45 c7 8e bd 3b 1e 53 be 4d 88 9f bd 5d db 16 bd
       -0.069716014 -0.20617001 -0.07789669 -0.036830295
000190 46 54 42 3e 7c 51 87 bc 8a eb 95 3d a1 0d 04 be
       0.1897746 -0.016518347 0.07320316 -0.12895824
0001a0 7d 11 3f 3e 0b f5 dc 3d 58 ae 52 bb dc 1c ec 3d
       0.18659015 0.10788926 -0.0032147374 0.11528942
0001b0 37 01 90 3d 4c 89 d6 bc c8 f0 64 bc 7e dc 21 3e
       0.07031482 -0.026188515 -0.013973422 0.15806767
0001c0 e8 b3 57 3d a4 4c b0 3d f8 08 b4 3c 02 84 a4 3c
       0.052661806 0.08608368 0.021976933 0.020082477
0001d0 dc 83 67 3d 9f a1 7c bd 44 eb 60 3e 90 89 3d be
       0.056522235 -0.06167757 0.21964747 -0.18509507
0001e0 a3 10 d9 bd 76 07 c4 bd 65 ea d1 bd fa b6 b4 3d
       -0.10598876 -0.095717356 -0.10249785 0.088239625
0001f0 b0 a4 64 3c 40 10 c1 ba 8a bf ab 3d 5b 4c e4 3d
       0.01395528 -0.0014729574 0.083861426 0.11147376
000200 5a df b7 bd d2 a0 79 3d 77 45 f9 bd 36 2d 84 bd
       -0.08978148 0.060944386 -0.121714525 -0.06453936
000210 86 1d ee 3c 3b a0 5a be 02 3a 32 3d 1a fd f5 bc
       0.029066812 -0.21350186 0.04351235 -0.030027915
000220 e0 83 09 3e d6 69 9a 3c 02 74 ae bc 84 8b 14 3d
       0.13429213 0.018849295 -0.021295551 0.036265865
000230 62 59 c6 bd 34 81 0f 3d 7c c6 4d bd 32 ef 9c 3d
       -0.09685017 0.035035327 -0.050238118 0.076628104
000240 cd d7 cd 3d 87 45 93 bd a2 0d b7 bc 7a bc 94 3d
       0.10050926 -0.07190996 -0.022345368 0.072625116
000250 05 96 c4 bb 99 e1 dd 3d 9a 15 ed 3c 90 4a af bd
       -0.005999329 0.10834045 0.028940964 -0.085591435
000260 6a 1a 62 3d 90 b4 a9 bd e9 a7 f8 bc 41 80 64 bd
       0.05520097 -0.08286393 -0.030353503 -0.055786375
000270 14 c8 65 3d 69 bc 75 3d 50 b2 bc 3b d6 fe 57 3e
       0.056099012 0.059994135 0.005758561 0.21093306
000280 ed 3c f8 3c 57 cc ac 3d c9 20 96 bc 57 8a 02 3e
       0.03030249 0.08437412 -0.01832618 0.12748085
000290 f5 f0 3c be b7 6e 12 3e 31 64 60 bd 5b 05 02 3e
       -0.18451293 0.14300047 -0.05478305 0.12697355
0002a0 78 29 55 be 75 68 c3 3d 36 72 13 bd 24 39 d9 bd
       -0.208166 0.09541408 -0.035997592 -0.10606602
0002b0 75 86 9f bd 47 47 6d 3d 10 0e 2e bd e9 62 ed 3d
       -0.077893175 0.057929303 -0.04249388 0.11591131
0002c0 63 89 44 3d 4f be 7b be be ac 62 3d e8 70 ef 3a
       0.047982585 -0.24584316 0.05534052 0.0018267902
0002d0 af 08 34 3c 51 2c e4 bd de f1 3d 3e 1e 6a d7 bd
       0.010988398 -0.11141265 0.18549296 -0.10518287
0002e0 c2 a4 32 3e ce 9f c3 3c 59 58 13 3c 20 16 14 bc
       0.17445663 0.023879912 0.008993232 -0.009038478
0002f0 b0 f1 65 3d 5e 26 a8 bd 17 5a bb bd 74 2a a0 bd
       0.056138694 -0.08210443 -0.09148043 -0.07820597
000300 f8 2b 47 3c 4e a0 97 bd 05 c8 a0 bd 4f 7c da bd
       0.012156479 -0.074036226 -0.07850651 -0.10668241
000310 ff 98 9a bd 37 6a dc 3d 38 d8 f4 bd c3 22 2b 3d
       -0.07548713 0.107624464 -0.11955303 0.0417812
000320 24 0a 94 3c bd 65 d2 3d 39 8e 89 bd ed 96 fa 3c
       0.018071242 0.10273311 -0.0671658 0.030589545
000330 48 3b 34 bc e0 f3 e9 3d 1c 5e 86 bd 04 1f 8b 3d
       -0.011000462 0.114234686 -0.06560919 0.06793025
000340 a6 2f 1b bd 5a 0f 16 3d 56 22 97 bd 59 ed 05 3e
       -0.037887238 0.036635734 -0.07379596 0.13078822
000350 16 75 bb 3d d1 64 64 3d bb 6b 6c 3e 5b e7 ee 3d
       0.09153192 0.05576021 0.23087971 0.11665221
000360 e6 7c d7 b9 bd 08 50 3e 7c 8a 38 bd 37 67 f6 bd
       -0.00041101052 0.20315833 -0.045053944 -0.120314054
000370 80 7d 02 3e dc 61 69 3e 94 b9 97 bd 1e 80 34 3e
       0.12743187 0.22791237 -0.07408443 0.17626998
000380 7f 68 15 bd 01 77 ed 3b 1d c8 88 bd 9c 9c 50 3d
       -0.03647661 0.0072468524 -0.066787936 0.050930604
000390 31 00 ae 3d 4e 4d 1c bd 28 d8 3f 3b 00 91 ba 3c
       0.0849613 -0.03815966 0.0029273126 0.02277422
0003a0 5c fc c0 bb 2f 37 b3 3d 32 14 6e bd 73 a5 b4 bc
       -0.0058894586 0.0875076 -0.05812473 -0.022051549
0003b0 d6 d1 6a 3d 5f f1 a3 3d e1 83 2b 3d 55 08 0d 3d
       0.05732902 0.08005022 0.041873816 0.034431774
0003c0 2b 17 33 3d da 58 27 b9 34 09 bb 3d ac 13 59 be
       0.043723267 -0.00015959461 0.09132615 -0.2119891
0003d0 1c 7b 1c be df 34 b5 3d 9b 74 63 3d 18 04 c3 3d
       -0.15281337 0.08847975 0.055531126 0.09522265
0003e0 89 58 a4 bc f9 b9 e1 3d 3c 45 51 3d 51 a0 e5 3c
       -0.020061748 0.110217996 0.051091418 0.028030546
0003f0 30 86 1d 3e 84 a6 8b 3c 6b ec 0c 3e b4 77 55 bd
       0.1538322 0.017047174 0.13762061 -0.05211611

fc3.bias f4 [10]
000000 f2 29 1f bd 04 97 c2 3d bf 00 44 bb c4 f1 3e bd
       -0.03885836 0.0950146 -0.0029907671 -0.046617284
000010 e9 26 a3 bd fd 49 1d be b1 84 6a bd 88 1f 10 bc
       -0.07966406 -0.15360256 -0.05725545 -0.00879658
000020 39 b4 db bd 3e 08 d4 bd
       -0.10727734 -0.103531346
